…
:"0a87a2f6-1f70-41be-ed1d-0f1b4286ea7f"},"execution_count":11,"outputs":[{"output_type":"stream","name":"stdout","text":["------------ Options -------------\n","batch_size: 1024\n","data_path: ./kdd_cup.npz\n","gmm_k: 4\n","lambda_cov_diag: 0.005\n","lambda_energy: 0.1\n","log_path: ./logs\n","log_step: 48\n","lr: 0.0001\n","mode: train\n","model_save_path: ./models\n","model_save_step: 194\n","num_epochs: 1\n","pretrained_model: None\n","sample_step: 194\n","use_tensorboard: False\n","wd: None\n","-------------- End ----------------\n","DaGMM\n","DaGMM(\n","  (encoder): Sequential(\n","    (0): Linear(in_features=118, out_features=60, bias=True)\n","    (1): Tanh()\n","    (2): Linear(in_features=60, out_features=30, bias=True)\n","    (3): Tanh()\n","    (4): Linear(in_features=30, out_features=10, bias=True)\n","    (5): Tanh()\n","    (6): Linear(in_features=10, out_features=1, bias=True)\n","  )\n","  (decoder): Sequential(\n","    (0): Linear(in_features=1, out_features=10, bias=True)\n","    (1): Tanh()\n","    (2): Linear(in_features=10, out_features=30, bias=True)\n","    (3): Tanh()\n","    (4): Linear(in_features=30, out_features=60, bias=True)\n","    (5): Tanh()\n","    (6): Linear(in_features=60, out_features=118, bias=True)\n","  )\n","  (estimation): Sequential(\n","    (0): Linear(in_features=3, out_features=10, bias=True)\n","    (1): Tanh()\n","    (2): Dropout(p=0.5, inplace=False)\n","    (3): Linear(in_features=10, out_features=4, bias=True)\n","    (4): Softmax(dim=1)\n","  )\n",")\n","The number of parameters: 18783\n"]},{"output_type":"stream","name":"stderr","text":["  0%|          | 0/194 [00:00<?, ?it/s]/usr/local/lib/python3.7/dist-packages/ipykernel_launcher.py:16: DeprecationWarning: 'saved_variables' is deprecated; use 'saved_tensors'\n","  app.launch_new_instance()\n","  2%|▏      
…
